…
I0118 17:08:37.159726 32721 net.cpp:294] The NetState phase (0) differed from the phase (1) specified by a rule in layer accuracy
I0118 17:08:37.159879 32721 net.cpp:51] Initializing net from parameters: 
name: "CIFAR10_quick"
state {
  phase: TRAIN
}
layer {
  name: "cifar"
  type: "Data"
  top: "data"
  top: "label"
  include {
    phase: TRAIN
  }
  transform_param {
    mean_file: "examples/cifar10/mean.binaryproto"
  }
  data_param {
    source: "examples/cifar10/cifar10_train_lmdb"
    batch_size: 100
    backend: LMDB
  }
}
layer {
  name: "conv1"
  type: "Convolution"
  bottom: "data"
  top: "conv1"
  param {
    lr_mult: 1
  }
  param {
    lr_mult: 2
  }
  convolution_param {
    num_output: 32
    pad: 2
    kernel_size: 5
    stride: 1
    weight_filler {
      type: "gaussian"
      std: 0.0001
    }
    bias_filler {
      type: "constant"
    }
  }
}
layer {
  name: "pool1"
  type: "Pooling"
  bottom: "conv1"
  top: "pool1"
  pooling_param {
    pool: MAX
    kernel_size: 3
    stride: 2
  }
}
layer {
  name: "relu1"
  type: "ReLU"
  bottom: "pool1"
  top: "pool1"
}
layer {
  name: "conv2"
  type: "Convolution"
  bottom: "pool1"
  top: "conv2"
  param {
    lr_mult: 1
  }
  param {
    lr_mult: 2
  }
  convolution_param {
    num_output: 32
    pad: 2
    kernel_size: 5
    stride: 1
    weight_filler {
      type: "gaussian"
      std: 0.01
    }
    bias_filler {
      type: "constant"
    }
  }
}
layer {
  name: "relu2"
  type: "ReLU"
  bottom: "conv2"
  top: "conv2"
}
layer {
  name: "pool2"
  type: "Pooling"
  bottom: "conv2"
  top: "pool2"
  pooling_param {
    pool: AVE
    kernel_size: 3
    stride: 2
  }
}
layer {
  name: "conv3"
  type: "Convolution"
  bottom: "pool2"
  top: "conv3"
  param {
    lr_mult: 1
  }
  param {
    lr_mult: 2
  }
  convolution_param {
    num_output: 64
    pad: 2
    kernel_size: 5
    stride: 1
    weight_filler {
      type: "gaussian"
      std: 0.01
    }
    bias_filler {
      type: "constant"
    }
  }
}
layer {
  name: "relu3"
  type: "ReLU"
  bottom: "conv3"
  top: "conv3"
}
layer {
  name: "pool3"
  type: "Pooling"
  bottom: "conv3"
  top: "pool3"
  pooling_param {
    pool: AVE
    kernel_size: 3
    stride: 2
  }
}
layer {
  name: "ip1"
  type: "InnerProduct"
  bottom: "pool3"
  top: "ip1"
  param {
    lr_mult: 1
  }
  param {
    lr_mult: 2
  }
  inner_product_param {
    num_output: 64
    weight_filler {
      type: "gaussian"
      std: 0.1
    }
    bias_filler {
      type: "constant"
    }
  }
}
layer {
  name: "ip2"
  type: "InnerProduct"
  bottom: "ip1"
  top: "ip2"
  param {
    lr_mult: 1
  }
  param {
    lr_mult: 2
  }
  inner_product_param {
    num_output: 10
    weight_filler {
      type: "gaussian"
      std: 0.1
    }
    bias_filler {
      type: "constant"
    }
  }
}
layer {
  name: "loss"
  type: "SoftmaxWithLoss"
  bottom: "ip2"
  bottom: "label"
  top: "loss"
}
I0118 17:08:37.160049 32721 layer_factory.hpp:77] Creating layer cifar
I0118 17:08:37.160179 32721 db_lmdb.cpp:35] Opened lmdb examples/cifar10/cifar10_train_lmdb
I0118 17:08:37.160215 32721 net.cpp:84] Creating Layer cifar
I0118 17:08:37.160228 32721 net.cpp:380] cifar -> data
I0118 17:08:37.160249 32721 net.cpp:380] cifar -> label
I0118 17:08:37.160265 32721 data_transformer.cpp:25] Loading mean file from: examples/cifar10/mean.binaryproto
I0118 17:08:37.164352 32721 data_layer.cpp:45] output data size: 100,3,32,32
I0118 17:08:37.176136 32721 net.cpp:122] Setting up cifar
I0118 17:08:37.176205 32721 net.cpp:129] Top shape: 100 3 32 32 (307200)
I0118 17:08:37.176245 32721 net.cpp:129] Top shape: 100 (100)
I0118 17:08:37.176255 32721 net.cpp:137] Memory required for data: 1229200
I0118 17:08:37.176273 32721 layer_factory.hpp:77] Creating layer conv1
I0118 17:08:37.176334 32721 net.cpp:84] Creating Layer conv1
I0118 17:08:37.176363 32721 net.cpp:406] conv1 <- data
I0118 17:08:37.176384 32721 net.cpp:380] conv1 -> conv1
I0118 17:08:37.555325 32721 net.cpp:122] Setting up conv1
I0118 17:08:37.555380 32721 net.cpp:129] Top shape: 100 32 32 32 (3276800)
I0118 17:08:37.555389 32721 net.cpp:137] Memory required for data: 14336400
I0118 17:08:37.555421 32721 layer_factory.hpp:77] Creating layer pool1
I0118 17:08:37.555444 32721 net.cpp:84] Creating Layer pool1
I0118 17:08:37.555451 32721 net.cpp:406] pool1 <- conv1
I0118 17:08:37.555461 32721 net.cpp:380] pool1 -> pool1
I0118 17:08:37.555523 32721 net.cpp:122] Setting up pool1
I0118 17:08:37.555536 32721 net.cpp:129] Top shape: 100 32 16 16 (819200)
I0118 17:08:37.555541 32721 net.cpp:137] Memory required for data: 17613200
I0118 17:08:37.555548 32721 layer_factory.hpp:77] Creating layer relu1
I0118 17:08:37.555558 32721 net.cpp:84] Creating Layer relu1
I0118 17:08:37.555565 32721 net.cpp:406] relu1 <- pool1
I0118 17:08:37.555573 32721 net.cpp:367] relu1 -> pool1 (in-place)
I0118 17:08:37.555801 32721 net.cpp:122] Setting up relu1
I0118 17:08:37.555816 32721 net.cpp:129] Top shape: 100 32 16 16 (819200)
I0118 17:08:37.555822 32721 net.cpp:137] Memory required for data: 20890000
I0118 17:08:37.555830 32721 layer_factory.hpp:77] Creating layer conv2
I0118 17:08:37.555850 32721 net.cpp:84] Creating Layer conv2
I0118 17:08:37.555857 32721 net.cpp:406] conv2 <- pool1
I0118 17:08:37.555866 32721 net.cpp:380] conv2 -> conv2
I0118 17:08:37.560761 32721 net.cpp:122] Setting up conv2
I0118 17:08:37.560788 32721 net.cpp:129] Top shape: 100 32 16 16 (819200)
I0118 17:08:37.560796 32721 net.cpp:137] Memory required for data: 24166800
I0118 17:08:37.560813 32721 layer_factory.hpp:77] Creating layer relu2
I0118 17:08:37.560827 32721 net.cpp:84] Creating Layer relu2
I0118 17:08:37.560833 32721 net.cpp:406] relu2 <- conv2
I0118 17:08:37.560844 32721 net.cpp:367] relu2 -> conv2 (in-place)
I0118 17:08:37.562054 32721 net.cpp:122] Setting up relu2
I0118 17:08:37.562074 32721 net.cpp:129] Top shape: 100 32 16 16 (819200)
I0118 17:08:37.562081 32721 net.cpp:137] Memory required for data: 27443600
I0118 17:08:37.562089 32721 layer_factory.hpp:77] Creating layer pool2
I0118 17:08:37.562100 32721 net.cpp:84] Creating Layer pool2
I0118 17:08:37.562108 32721 net.cpp:406] pool2 <- conv2
I0118 17:08:37.562119 32721 net.cpp:380] pool2 -> pool2
I0118 17:08:37.562364 32721 net.cpp:122] Setting up pool2
I0118 17:08:37.562379 32721 net.cpp:129] Top shape: 100 32 8 8 (204800)
I0118 17:08:37.562386 32721 net.cpp:137] Memory required for data: 28262800
I0118 17:08:37.562392 32721 layer_factory.hpp:77] Creating layer conv3
I0118 17:08:37.562409 32721 net.cpp:84] Creating Layer conv3
I0118 17:08:37.562417 32721 net.cpp:406] conv3 <- pool2
I0118 17:08:37.562430 32721 net.cpp:380] conv3 -> conv3
I0118 17:08:37.565371 32721 net.cpp:122] Setting up conv3
I0118 17:08:37.565392 32721 net.cpp:129] Top shape: 100 64 8 8 (409600)
I0118 17:08:37.565399 32721 net.cpp:137] Memory required for data: 29901200
I0118 17:08:37.565418 32721 layer_factory.hpp:77] Creating layer relu3
I0118 17:08:37.565433 32721 net.cpp:84] Creating Layer relu3
I0118 17:08:37.565440 32721 net.cpp:406] relu3 <- conv3
I0118 17:08:37.565449 32721 net.cpp:367] relu3 -> conv3 (in-place)
I0118 17:08:37.565678 32721 net.cpp:122] Setting up relu3
I0118 17:08:37.565693 32721 net.cpp:129] Top shape: 100 64 8 8 (409600)
I0118 17:08:37.565699 32721 net.cpp:137] Memory required for data: 31539600
I0118 17:08:37.565707 32721 layer_factory.hpp:77] Creating layer pool3
I0118 17:08:37.565717 32721 net.cpp:84] Creating Layer pool3
I0118 17:08:37.565724 32721 net.cpp:406] pool3 <- conv3
I0118 17:08:37.565735 32721 net.cpp:380] pool3 -> pool3
I0118 17:08:37.565989 32721 net.cpp:122] Setting up pool3
I0118 17:08:37.566004 32721 net.cpp:129] Top shape: 100 64 4 4 (102400)
I0118 17:08:37.566010 32721 net.cpp:137] Memory required for data: 31949200
I0118 17:08:37.566017 32721 layer_factory.hpp:77] Creating layer ip1
I0118 17:08:37.566030 32721 net.cpp:84] Creating Layer ip1
I0118 17:08:37.566040 32721 net.cpp:406] ip1 <- pool3
I0118 17:08:37.566051 32721 net.cpp:380] ip1 -> ip1
I0118 17:08:37.567369 32721 net.cpp:122] Setting up ip1
I0118 17:08:37.567382 32721 net.cpp:129] Top shape: 100 64 (6400)
I0118 17:08:37.567389 32721 net.cpp:137] Memory required for data: 31974800
I0118 17:08:37.567402 32721 layer_factory.hpp:77] Creating layer ip2
I0118 17:08:37.567412 32721 net.cpp:84] Creating Layer ip2
I0118 17:08:37.567420 32721 net.cpp:406] ip2 <- ip1
I0118 17:08:37.567431 32721 net.cpp:380] ip2 -> ip2
I0118 17:08:37.567580 32721 net.cpp:122] Setting up ip2
I0118 17:08:37.567592 32721 net.cpp:129] Top shape: 100 10 (1000)
I0118 17:08:37.567598 32721 net.cpp:137] Memory required for data: 31978800
I0118 17:08:37.567615 32721 layer_factory.hpp:77] Creating layer loss
I0118 17:08:37.567625 32721 net.cpp:84] Creating Layer loss
I0118 17:08:37.567632 32721 net.cpp:406] loss <- ip2
I0118 17:08:37.567641 32721 net.cpp:406] loss <- label
I0118 17:08:37.567651 32721 net.cpp:380] loss -> loss
I0118 17:08:37.567664 32721 layer_factory.hpp:77] Creating layer loss
…
I0118 17:08:37.569548 32721 net.cpp:294] The NetState phase (1) differed from the phase (0) specified by a rule in layer cifar
I0118 17:08:37.569742 32721 net.cpp:51] Initializing net from parameters: 
name: "CIFAR10_quick"
state {
  phase: TEST
}
layer {
  name: "cifar"
  type: "Data"
  top: "data"
  top: "label"
  include {
    phase: TEST
  }
  transform_param {
    mean_file: "examples/cifar10/mean.binaryproto"
  }
  data_param {
    source: "examples/cifar10/cifar10_test_lmdb"
    batch_size: 100
    backend: LMDB
  }
}
layer {
  name: "conv1"
  type: "Convolution"
  bottom: "data"
  top: "conv1"
  param {
    lr_mult: 1
  }
  param {
    lr_mult: 2
  }
  convolution_param {
    num_output: 32
    pad: 2
    kernel_size: 5
    stride: 1
    weight_filler {
      type: "gaussian"
      std: 0.0001
    }
    bias_filler {
      type: "constant"
    }
  }
}
layer {
  name: "pool1"
  type: "Pooling"
  bottom: "conv1"
  top: "pool1"
  pooling_param {
    pool: MAX
    kernel_size: 3
    stride: 2
  }
}
layer {
  name: "relu1"
  type: "ReLU"
  bottom: "pool1"
  top: "pool1"
}
layer {
  name: "conv2"
  type: "Convolution"
  bottom: "pool1"
  top: "conv2"
  param {
    lr_mult: 1
  }
  param {
    lr_mult: 2
  }
  convolution_param {
    num_output: 32
    pad: 2
    kernel_size: 5
    stride: 1
    weight_filler {
      type: "gaussian"
      std: 0.01
    }
    bias_filler {
      type: "constant"
    }
  }
}
layer {
  name: "relu2"
  type: "ReLU"
  bottom: "conv2"
  top: "conv2"
}
layer {
  name: "pool2"
  type: "Pooling"
  bottom: "conv2"
  top: "pool2"
  pooling_param {
    pool: AVE
    kernel_size: 3
    stride: 2
  }
}
layer {
  name: "conv3"
  type: "Convolution"
  bottom: "pool2"
  top: "conv3"
  param {
    lr_mult: 1
  }
  param {
    lr_mult: 2
  }
  convolution_param {
    num_output: 64
    pad: 2
    kernel_size: 5
    stride: 1
    weight_filler {
      type: "gaussian"
      std: 0.01
    }
    bias_filler {
      type: "constant"
    }
  }
}
layer {
  name: "relu3"
  type: "ReLU"
  bottom: "conv3"
  top: "conv3"
}
layer {
  name: "pool3"
  type: "Pooling"
  bottom: "conv3"
  top: "pool3"
  pooling_param {
    pool: AVE
    kernel_size: 3
    stride: 2
  }
}
layer {
  name: "ip1"
  type: "InnerProduct"
  bottom: "pool3"
  top: "ip1"
  param {
    lr_mult: 1
  }
  param {
    lr_mult: 2
  }
  inner_product_param {
    num_output: 64
    weight_filler {
      type: "gaussian"
      std: 0.1
    }
    bias_filler {
      type: "constant"
    }
  }
}
layer {
  name: "ip2"
  type: "InnerProduct"
  bottom: "ip1"
  top: "ip2"
  param {
    lr_mult: 1
  }
  param {
    lr_mult: 2
  }
  inner_product_param {
    num_output: 10
    weight_filler {
      type: "gaussian"
      std: 0.1
    }
    bias_filler {
      type: "constant"
    }
  }
}
layer {
  name: "accuracy"
  type: "Accuracy"
  bottom: "ip2"
  bottom: "label"
  top: "accuracy"
  include {
    phase: TEST
  }
}
layer {
  name: "loss"
  type: "SoftmaxWithLoss"
  bottom: "ip2"
  bottom: "label"
  top: "loss"
}
I0118 17:08:37.569962 32721 layer_factory.hpp:77] Creating layer cifar
I0118 17:08:37.570075 32721 db_lmdb.cpp:35] Opened lmdb examples/cifar10/cifar10_test_lmdb
I0118 17:08:37.570101 32721 net.cpp:84] Creating Layer cifar
I0118 17:08:37.570113 32721 net.cpp:380] cifar -> data
I0118 17:08:37.570129 32721 net.cpp:380] cifar -> label
I0118 17:08:37.570142 32721 data_transformer.cpp:25] Loading mean file from: examples/cifar10/mean.binaryproto
I0118 17:08:37.570381 32721 data_layer.cpp:45] output data size: 100,3,32,32
I0118 17:08:37.586930 32721 net.cpp:122] Setting up cifar
I0118 17:08:37.587023 32721 net.cpp:129] Top shape: 100 3 32 32 (307200)
I0118 17:08:37.587031 32721 net.cpp:129] Top shape: 100 (100)
I0118 17:08:37.587034 32721 net.cpp:137] Memory required for data: 1229200
I0118 17:08:37.587062 32721 layer_factory.hpp:77] Creating layer label_cifar_1_split
I0118 17:08:37.587080 32721 net.cpp:84] Creating Layer label_cifar_1_split
I0118 17:08:37.587085 32721 net.cpp:406] label_cifar_1_split <- label
I0118 17:08:37.587095 32721 net.cpp:380] label_cifar_1_split -> label_cifar_1_split_0
I0118 17:08:37.587107 32721 net.cpp:380] label_cifar_1_split -> label_cifar_1_split_1
I0118 17:08:37.587530 32721 net.cpp:122] Setting up label_cifar_1_split
I0118 17:08:37.587538 32721 net.cpp:129] Top shape: 100 (100)
I0118 17:08:37.587543 32721 net.cpp:129] Top shape: 100 (100)
I0118 17:08:37.587548 32721 net.cpp:137] Memory required for data: 1230000
I0118 17:08:37.587569 32721 layer_factory.hpp:77] Creating layer conv1
I0118 17:08:37.587586 32721 net.cpp:84] Creating Layer conv1
I0118 17:08:37.587591 32721 net.cpp:406] conv1 <- data
I0118 17:08:37.587599 32721 net.cpp:380] conv1 -> conv1
I0118 17:08:37.590958 32721 net.cpp:122] Setting up conv1
I0118 17:08:37.591032 32721 net.cpp:129] Top shape: 100 32 32 32 (3276800)
I0118 17:08:37.591047 32721 net.cpp:137] Memory required for data: 14337200
I0118 17:08:37.591089 32721 layer_factory.hpp:77] Creating layer pool1
I0118 17:08:37.591116 32721 net.cpp:84] Creating Layer pool1
I0118 17:08:37.591130 32721 net.cpp:406] pool1 <- conv1
I0118 17:08:37.591146 32721 net.cpp:380] pool1 -> pool1
I0118 17:08:37.591223 32721 net.cpp:122] Setting up pool1
I0118 17:08:37.591238 32721 net.cpp:129] Top shape: 100 32 16 16 (819200)
I0118 17:08:37.591245 32721 net.cpp:137] Memory required for data: 17614000
I0118 17:08:37.591253 32721 layer_factory.hpp:77] Creating layer relu1
I0118 17:08:37.591270 32721 net.cpp:84] Creating Layer relu1
I0118 17:08:37.591277 32721 net.cpp:406] relu1 <- pool1
I0118 17:08:37.591287 32721 net.cpp:367] relu1 -> pool1 (in-place)
I0118 17:08:37.591652 32721 net.cpp:122] Setting up relu1
I0118 17:08:37.591670 32721 net.cpp:129] Top shape: 100 32 16 16 (819200)
I0118 17:08:37.591681 32721 net.cpp:137] Memory required for data: 20890800
I0118 17:08:37.591688 32721 layer_factory.hpp:77] Creating layer conv2
I0118 17:08:37.591713 32721 net.cpp:84] Creating Layer conv2
I0118 17:08:37.591723 32721 net.cpp:406] conv2 <- pool1
I0118 17:08:37.591735 32721 net.cpp:380] conv2 -> conv2
I0118 17:08:37.595149 32721 net.cpp:122] Setting up conv2
I0118 17:08:37.595207 32721 net.cpp:129] Top shape: 100 32 16 16 (819200)
I0118 17:08:37.595218 32721 net.cpp:137] Memory required for data: 24167600
I0118 17:08:37.595254 32721 layer_factory.hpp:77] Creating layer relu2
I0118 17:08:37.595279 32721 net.cpp:84] Creating Layer relu2
I0118 17:08:37.595293 32721 net.cpp:406] relu2 <- conv2
I0118 17:08:37.595309 32721 net.cpp:367] relu2 -> conv2 (in-place)
I0118 17:08:37.595602 32721 net.cpp:122] Setting up relu2
I0118 17:08:37.595618 32721 net.cpp:129] Top shape: 100 32 16 16 (819200)
I0118 17:08:37.595625 32721 net.cpp:137] Memory required for data: 27444400
I0118 17:08:37.595634 32721 layer_factory.hpp:77] Creating layer pool2
I0118 17:08:37.595650 32721 net.cpp:84] Creating Layer pool2
I0118 17:08:37.595659 32721 net.cpp:406] pool2 <- conv2
I0118 17:08:37.595671 32721 net.cpp:380] pool2 -> pool2
I0118 17:08:37.595999 32721 net.cpp:122] Setting up pool2
I0118 17:08:37.596021 32721 net.cpp:129] Top shape: 100 32 8 8 (204800)
I0118 17:08:37.596038 32721 net.cpp:137] Memory required for data: 28263600
I0118 17:08:37.596052 32721 layer_factory.hpp:77] Creating layer conv3
I0118 17:08:37.596114 32721 net.cpp:84] Creating Layer conv3
I0118 17:08:37.596256 32721 net.cpp:406] conv3 <- pool2
I0118 17:08:37.596288 32721 net.cpp:380] conv3 -> conv3
I0118 17:08:37.599320 32721 net.cpp:122] Setting up conv3
I0118 17:08:37.599376 32721 net.cpp:129] Top shape: 100 64 8 8 (409600)
I0118 17:08:37.599411 32721 net.cpp:137] Memory required for data: 29902000
I0118 17:08:37.599445 32721 layer_factory.hpp:77] Creating layer relu3
I0118 17:08:37.599463 32721 net.cpp:84] Creating Layer relu3
I0118 17:08:37.599470 32721 net.cpp:406] relu3 <- conv3
I0118 17:08:37.599481 32721 net.cpp:367] relu3 -> conv3 (in-place)
I0118 17:08:37.599684 32721 net.cpp:122] Setting up relu3
I0118 17:08:37.599697 32721 net.cpp:129] Top shape: 100 64 8 8 (409600)
I0118 17:08:37.599704 32721 net.cpp:137] Memory required for data: 31540400
I0118 17:08:37.599707 32721 layer_factory.hpp:77] Creating layer pool3
I0118 17:08:37.599720 32721 net.cpp:84] Creating Layer pool3
I0118 17:08:37.599735 32721 net.cpp:406] pool3 <- conv3
I0118 17:08:37.599750 32721 net.cpp:380] pool3 -> pool3
I0118 17:08:37.601229 32721 net.cpp:122] Setting up pool3
I0118 17:08:37.601306 32721 net.cpp:129] Top shape: 100 64 4 4 (102400)
I0118 17:08:37.601318 32721 net.cpp:137] Memory required for data: 31950000
I0118 17:08:37.601333 32721 layer_factory.hpp:77] Creating layer ip1
I0118 17:08:37.601368 32721 net.cpp:84] Creating Layer ip1
I0118 17:08:37.601379 32721 net.cpp:406] ip1 <- pool3
I0118 17:08:37.601403 32721 net.cpp:380] ip1 -> ip1
I0118 17:08:37.602936 32721 net.cpp:122] Setting up ip1
I0118 17:08:37.602972 32721 net.cpp:129] Top shape: 100 64 (6400)
I0118 17:08:37.602980 32721 net.cpp:137] Memory required for data: 31975600
I0118 17:08:37.602999 32721 layer_factory.hpp:77] Creating layer ip2
I0118 17:08:37.603018 32721 net.cpp:84] Creating Layer ip2
I0118 17:08:37.603026 32721 net.cpp:406] ip2 <- ip1
I0118 17:08:37.603039 32721 net.cpp:380] ip2 -> ip2
I0118 17:08:37.603232 32721 net.cpp:122] Setting up ip2
I0118 17:08:37.603245 32721 net.cpp:129] Top shape: 100 10 (1000)
I0118 17:08:37.603252 32721 net.cpp:137] Memory required for data: 31979600
I0118 17:08:37.603274 32721 layer_factory.hpp:77] Creating layer ip2_ip2_0_split
I0118 17:08:37.603286 32721 net.cpp:84] Creating Layer ip2_ip2_0_split
I0118 17:08:37.603294 32721 net.cpp:406] ip2_ip2_0_split <- ip2
I0118 17:08:37.603304 32721 net.cpp:380] ip2_ip2_0_split -> ip2_ip2_0_split_0
I0118 17:08:37.603317 32721 net.cpp:380] ip2_ip2_0_split -> ip2_ip2_0_split_1
I0118 17:08:37.603374 32721 net.cpp:122] Setting up ip2_ip2_0_split
I0118 17:08:37.603392 32721 net.cpp:129] Top shape: 100 10 (1000)
I0118 17:08:37.603401 32721 net.cpp:129] Top shape: 100 10 (1000)
I0118 17:08:37.603408 32721 net.cpp:137] Memory required for data: 31987600
I0118 17:08:37.603415 32721 layer_factory.hpp:77] Creating layer accuracy
I0118 17:08:37.603430 32721 net.cpp:84] Creating Layer accuracy
I0118 17:08:37.603442 32721 net.cpp:406] accuracy <- ip2_ip2_0_split_0
I0118 17:08:37.603456 32721 net.cpp:406] accuracy <- label_cifar_1_split_0
I0118 17:08:37.603466 32721 net.cpp:380] accuracy -> accuracy
…
